…
":{"base_uri":"https://localhost:8080/"},"executionInfo":{"elapsed":643,"status":"ok","timestamp":1686420595639,"user":{"displayName":"Rajesh Kumar Das","userId":"02312238370084302232"},"user_tz":-360},"id":"waRmjIT1Ad7r","outputId":"01d618ee-57ae-41ae-d27b-dabc5e1fcc50"},"outputs":[{"output_type":"stream","name":"stdout","text":["Model: \"sequential_5\"\n","_________________________________________________________________\n"," Layer (type)                Output Shape              Param #   \n","=================================================================\n"," embedding_5 (Embedding)     (None, 300, 128)          640000    \n","                                                                 \n"," bidirectional_10 (Bidirecti  (None, 300, 128)         98816     \n"," onal)                                                           \n","                                                                 \n"," bidirectional_11 (Bidirecti  (None, 128)              98816     \n"," onal)                                                           \n","                                                                 \n"," dense_15 (Dense)            (None, 28)                3612      \n","                                                                 \n"," dropout_10 (Dropout)        (None, 28)                0         \n","                                                                 \n"," dense_16 (Dense)            (None, 14)                406       \n","                                                                 \n"," dropout_11 (Dropout)        (None, 14)                0         \n","                                                                 \n"," dense_17 (Dense)            (None, 3)                 45        \n","                                                                 \n","=================================================================\n","Total params: 841,695\n","Trainable params: 841,695\n","Non-trainable params: 0\n","_________________________________________________________________\n"]}],"source":["\n","import tensorflow as tf\n","from tensorflow.keras.layers import LSTM, Bidir
…
